…
I1130 00:13:44.351315  9554 net.cpp:294] The NetState phase (0) differed from the phase (1) specified by a rule in layer accuracy
I1130 00:13:44.351444  9554 net.cpp:51] Initializing net from parameters: 
name: "CIFAR10_full"
state {
  phase: TRAIN
  level: 0
  stage: ""
}
layer {
  name: "cifar"
  type: "Data"
  top: "data"
  top: "label"
  include {
    phase: TRAIN
  }
  transform_param {
    mean_file: "/home/david/caffe-master/cifar10/data/lmdb/mean.binaryproto"
  }
  data_param {
    source: "/home/david/caffe-master/cifar10/data/lmdb/cifar10_train_lmdb"
    batch_size: 100
    backend: LMDB
  }
}
layer {
  name: "conv1"
  type: "Convolution"
  bottom: "data"
  top: "conv1"
  param {
    lr_mult: 1
  }
  param {
    lr_mult: 2
  }
  convolution_param {
    num_output: 32
    pad: 2
    kernel_size: 5
    stride: 1
    weight_filler {
      type: "gaussian"
      std: 0.0001
    }
    bias_filler {
      type: "constant"
    }
  }
}
layer {
  name: "pool1"
  type: "Pooling"
  bottom: "conv1"
  top: "pool1"
  pooling_param {
    pool: MAX
    kernel_size: 3
    stride: 2
  }
}
layer {
  name: "relu1"
  type: "ReLU"
  bottom: "pool1"
  top: "pool1"
}
layer {
  name: "norm1"
  type: "LRN"
  bottom: "pool1"
  top: "norm1"
  lrn_param {
    local_size: 3
    alpha: 5e-05
    beta: 0.75
    norm_region: WITHIN_CHANNEL
  }
}
layer {
  name: "conv2"
  type: "Convolution"
  bottom: "norm1"
  top: "conv2"
  param {
    lr_mult: 1
  }
  param {
    lr_mult: 2
  }
  convolution_param {
    num_output: 32
    pad: 2
    kernel_size: 5
    stride: 1
    weight_filler {
      type: "gaussian"
      std: 0.01
    }
    bias_filler {
      type: "constant"
    }
  }
}
layer {
  name: "relu2"
  type: "ReLU"
  bottom: "conv2"
  top: "conv2"
}
layer {
  name: "pool2"
  type: "Pooling"
  bottom: "conv2"
  top: "pool2"
  pooling_param {
    pool: AVE
    kernel_size: 3
    stride: 2
  }
}
layer {
  name: "norm2"
  type: "LRN"
  bottom: "pool2"
  top: "norm2"
  lrn_param {
    local_size: 3
    alpha: 5e-05
    beta: 0.75
    norm_region: WITHIN_CHANNEL
  }
}
layer {
  name: "conv3"
  type: "Convolution"
  bottom: "norm2"
  top: "conv3"
  convolution_param {
    num_output: 64
    pad: 2
    kernel_size: 5
    stride: 1
    weight_filler {
      type: "gaussian"
      std: 0.01
    }
    bias_filler {
      type: "constant"
    }
  }
}
layer {
  name: "relu3"
  type: "ReLU"
  bottom: "conv3"
  top: "conv3"
}
layer {
  name: "pool3"
  type: "Pooling"
  bottom: "conv3"
  top: "pool3"
  pooling_param {
    pool: AVE
    kernel_size: 3
    stride: 2
  }
}
layer {
  name: "ip1"
  type: "InnerProduct"
  bottom: "pool3"
  top: "ip1"
  param {
    lr_mult: 1
    decay_mult: 250
  }
  param {
    lr_mult: 2
    decay_mult: 0
  }
  inner_product_param {
    num_output: 10
    weight_filler {
      type: "gaussian"
      std: 0.01
    }
    bias_filler {
      type: "constant"
    }
  }
}
layer {
  name: "loss"
  type: "SoftmaxWithLoss"
  bottom: "ip1"
  bottom: "label"
  top: "loss"
}
I1130 00:13:44.351552  9554 layer_factory.hpp:77] Creating layer cifar
I1130 00:13:44.351663  9554 db_lmdb.cpp:35] Opened lmdb /home/david/caffe-master/cifar10/data/lmdb/cifar10_train_lmdb
I1130 00:13:44.351701  9554 net.cpp:84] Creating Layer cifar
I1130 00:13:44.351725  9554 net.cpp:380] cifar -> data
I1130 00:13:44.351750  9554 net.cpp:380] cifar -> label
I1130 00:13:44.351774  9554 data_transformer.cpp:25] Loading mean file from: /home/david/caffe-master/cifar10/data/lmdb/mean.binaryproto
I1130 00:13:44.353193  9554 data_layer.cpp:45] output data size: 100,3,32,32
I1130 00:13:44.357287  9554 net.cpp:122] Setting up cifar
I1130 00:13:44.357328  9554 net.cpp:129] Top shape: 100 3 32 32 (307200)
I1130 00:13:44.357333  9554 net.cpp:129] Top shape: 100 (100)
I1130 00:13:44.357336  9554 net.cpp:137] Memory required for data: 1229200
I1130 00:13:44.357343  9554 layer_factory.hpp:77] Creating layer conv1
I1130 00:13:44.357383  9554 net.cpp:84] Creating Layer conv1
I1130 00:13:44.357388  9554 net.cpp:406] conv1 <- data
I1130 00:13:44.357434  9554 net.cpp:380] conv1 -> conv1
I1130 00:13:44.803737  9554 net.cpp:122] Setting up conv1
I1130 00:13:44.803776  9554 net.cpp:129] Top shape: 100 32 32 32 (3276800)
I1130 00:13:44.803779  9554 net.cpp:137] Memory required for data: 14336400
I1130 00:13:44.803819  9554 layer_factory.hpp:77] Creating layer pool1
I1130 00:13:44.803831  9554 net.cpp:84] Creating Layer pool1
I1130 00:13:44.803836  9554 net.cpp:406] pool1 <- conv1
I1130 00:13:44.803841  9554 net.cpp:380] pool1 -> pool1
I1130 00:13:44.803902  9554 net.cpp:122] Setting up pool1
I1130 00:13:44.803907  9554 net.cpp:129] Top shape: 100 32 16 16 (819200)
I1130 00:13:44.803910  9554 net.cpp:137] Memory required for data: 17613200
I1130 00:13:44.803911  9554 layer_factory.hpp:77] Creating layer relu1
I1130 00:13:44.803915  9554 net.cpp:84] Creating Layer relu1
I1130 00:13:44.803930  9554 net.cpp:406] relu1 <- pool1
I1130 00:13:44.803932  9554 net.cpp:367] relu1 -> pool1 (in-place)
I1130 00:13:44.804174  9554 net.cpp:122] Setting up relu1
I1130 00:13:44.804181  9554 net.cpp:129] Top shape: 100 32 16 16 (819200)
I1130 00:13:44.804201  9554 net.cpp:137] Memory required for data: 20890000
I1130 00:13:44.804203  9554 layer_factory.hpp:77] Creating layer norm1
I1130 00:13:44.804213  9554 net.cpp:84] Creating Layer norm1
I1130 00:13:44.804214  9554 net.cpp:406] norm1 <- pool1
I1130 00:13:44.804217  9554 net.cpp:380] norm1 -> norm1
I1130 00:13:44.804893  9554 net.cpp:122] Setting up norm1
I1130 00:13:44.804901  9554 net.cpp:129] Top shape: 100 32 16 16 (819200)
I1130 00:13:44.804921  9554 net.cpp:137] Memory required for data: 24166800
I1130 00:13:44.804924  9554 layer_factory.hpp:77] Creating layer conv2
I1130 00:13:44.804958  9554 net.cpp:84] Creating Layer conv2
I1130 00:13:44.804962  9554 net.cpp:406] conv2 <- norm1
I1130 00:13:44.804966  9554 net.cpp:380] conv2 -> conv2
I1130 00:13:44.806764  9554 net.cpp:122] Setting up conv2
I1130 00:13:44.806774  9554 net.cpp:129] Top shape: 100 32 16 16 (819200)
I1130 00:13:44.806795  9554 net.cpp:137] Memory required for data: 27443600
I1130 00:13:44.806802  9554 layer_factory.hpp:77] Creating layer relu2
I1130 00:13:44.806807  9554 net.cpp:84] Creating Layer relu2
I1130 00:13:44.806808  9554 net.cpp:406] relu2 <- conv2
I1130 00:13:44.806812  9554 net.cpp:367] relu2 -> conv2 (in-place)
I1130 00:13:44.807245  9554 net.cpp:122] Setting up relu2
I1130 00:13:44.807253  9554 net.cpp:129] Top shape: 100 32 16 16 (819200)
I1130 00:13:44.807256  9554 net.cpp:137] Memory required for data: 30720400
I1130 00:13:44.807258  9554 layer_factory.hpp:77] Creating layer pool2
I1130 00:13:44.807262  9554 net.cpp:84] Creating Layer pool2
I1130 00:13:44.807265  9554 net.cpp:406] pool2 <- conv2
I1130 00:13:44.807268  9554 net.cpp:380] pool2 -> pool2
I1130 00:13:44.807458  9554 net.cpp:122] Setting up pool2
I1130 00:13:44.807467  9554 net.cpp:129] Top shape: 100 32 8 8 (204800)
I1130 00:13:44.807469  9554 net.cpp:137] Memory required for data: 31539600
I1130 00:13:44.807471  9554 layer_factory.hpp:77] Creating layer norm2
I1130 00:13:44.807476  9554 net.cpp:84] Creating Layer norm2
I1130 00:13:44.807479  9554 net.cpp:406] norm2 <- pool2
I1130 00:13:44.807483  9554 net.cpp:380] norm2 -> norm2
I1130 00:13:44.807711  9554 net.cpp:122] Setting up norm2
I1130 00:13:44.807718  9554 net.cpp:129] Top shape: 100 32 8 8 (204800)
I1130 00:13:44.807732  9554 net.cpp:137] Memory required for data: 32358800
I1130 00:13:44.807735  9554 layer_factory.hpp:77] Creating layer conv3
I1130 00:13:44.807741  9554 net.cpp:84] Creating Layer conv3
I1130 00:13:44.807745  9554 net.cpp:406] conv3 <- norm2
I1130 00:13:44.807749  9554 net.cpp:380] conv3 -> conv3
I1130 00:13:44.809033  9554 net.cpp:122] Setting up conv3
I1130 00:13:44.809042  9554 net.cpp:129] Top shape: 100 64 8 8 (409600)
I1130 00:13:44.809063  9554 net.cpp:137] Memory required for data: 33997200
I1130 00:13:44.809070  9554 layer_factory.hpp:77] Creating layer relu3
I1130 00:13:44.809074  9554 net.cpp:84] Creating Layer relu3
I1130 00:13:44.809077  9554 net.cpp:406] relu3 <- conv3
I1130 00:13:44.809080  9554 net.cpp:367] relu3 -> conv3 (in-place)
I1130 00:13:44.809449  9554 net.cpp:122] Setting up relu3
I1130 00:13:44.809458  9554 net.cpp:129] Top shape: 100 64 8 8 (409600)
I1130 00:13:44.809479  9554 net.cpp:137] Memory required for data: 35635600
I1130 00:13:44.809482  9554 layer_factory.hpp:77] Creating layer pool3
I1130 00:13:44.809486  9554 net.cpp:84] Creating Layer pool3
I1130 00:13:44.809489  9554 net.cpp:406] pool3 <- conv3
I1130 00:13:44.809492  9554 net.cpp:380] pool3 -> pool3
I1130 00:13:44.809669  9554 net.cpp:122] Setting up pool3
I1130 00:13:44.809676  9554 net.cpp:129] Top shape: 100 64 4 4 (102400)
I1130 00:13:44.809697  9554 net.cpp:137] Memory required for data: 36045200
I1130 00:13:44.809700  9554 layer_factory.hpp:77] Creating layer ip1
I1130 00:13:44.809705  9554 net.cpp:84] Creating Layer ip1
I1130 00:13:44.809706  9554 net.cpp:406] ip1 <- pool3
I1130 00:13:44.809710  9554 net.cpp:380] ip1 -> ip1
I1130 00:13:44.810449  9554 net.cpp:122] Setting up ip1
I1130 00:13:44.810458  9554 net.cpp:129] Top shape: 100 10 (1000)
I1130 00:13:44.810482  9554 net.cpp:137] Memory required for data: 36049200
I1130 00:13:44.810487  9554 layer_factory.hpp:77] Creating layer loss
I1130 00:13:44.810497  9554 net.cpp:84] Creating Layer loss
I1130 00:13:44.810518  9554 net.cpp:406] loss <- ip1
I1130 00:13:44.810521  9554 net.cpp:406] loss <- label
I1130 00:13:44.810525  9554 net.cpp:380] loss -> loss
I1130 00:13:44.810535  9554 layer_factory.hpp:77] Creating layer loss
…
I1130 00:13:44.811153  9554 net.cpp:294] The NetState phase (1) differed from the phase (0) specified by a rule in layer cifar
I1130 00:13:44.811245  9554 net.cpp:51] Initializing net from parameters: 
name: "CIFAR10_full"
state {
  phase: TEST
}
layer {
  name: "cifar"
  type: "Data"
  top: "data"
  top: "label"
  include {
    phase: TEST
  }
  transform_param {
    mean_file: "/home/david/caffe-master/cifar10/data/lmdb/mean.binaryproto"
  }
  data_param {
    source: "/home/david/caffe-master/cifar10/data/lmdb/cifar10_test_lmdb"
    batch_size: 100
    backend: LMDB
  }
}
layer {
  name: "conv1"
  type: "Convolution"
  bottom: "data"
  top: "conv1"
  param {
    lr_mult: 1
  }
  param {
    lr_mult: 2
  }
  convolution_param {
    num_output: 32
    pad: 2
    kernel_size: 5
    stride: 1
    weight_filler {
      type: "gaussian"
      std: 0.0001
    }
    bias_filler {
      type: "constant"
    }
  }
}
layer {
  name: "pool1"
  type: "Pooling"
  bottom: "conv1"
  top: "pool1"
  pooling_param {
    pool: MAX
    kernel_size: 3
    stride: 2
  }
}
layer {
  name: "relu1"
  type: "ReLU"
  bottom: "pool1"
  top: "pool1"
}
layer {
  name: "norm1"
  type: "LRN"
  bottom: "pool1"
  top: "norm1"
  lrn_param {
    local_size: 3
    alpha: 5e-05
    beta: 0.75
    norm_region: WITHIN_CHANNEL
  }
}
layer {
  name: "conv2"
  type: "Convolution"
  bottom: "norm1"
  top: "conv2"
  param {
    lr_mult: 1
  }
  param {
    lr_mult: 2
  }
  convolution_param {
    num_output: 32
    pad: 2
    kernel_size: 5
    stride: 1
    weight_filler {
      type: "gaussian"
      std: 0.01
    }
    bias_filler {
      type: "constant"
    }
  }
}
layer {
  name: "relu2"
  type: "ReLU"
  bottom: "conv2"
  top: "conv2"
}
layer {
  name: "pool2"
  type: "Pooling"
  bottom: "conv2"
  top: "pool2"
  pooling_param {
    pool: AVE
    kernel_size: 3
    stride: 2
  }
}
layer {
  name: "norm2"
  type: "LRN"
  bottom: "pool2"
  top: "norm2"
  lrn_param {
    local_size: 3
    alpha: 5e-05
    beta: 0.75
    norm_region: WITHIN_CHANNEL
  }
}
layer {
  name: "conv3"
  type: "Convolution"
  bottom: "norm2"
  top: "conv3"
  convolution_param {
    num_output: 64
    pad: 2
    kernel_size: 5
    stride: 1
    weight_filler {
      type: "gaussian"
      std: 0.01
    }
    bias_filler {
      type: "constant"
    }
  }
}
layer {
  name: "relu3"
  type: "ReLU"
  bottom: "conv3"
  top: "conv3"
}
layer {
  name: "pool3"
  type: "Pooling"
  bottom: "conv3"
  top: "pool3"
  pooling_param {
    pool: AVE
    kernel_size: 3
    stride: 2
  }
}
layer {
  name: "ip1"
  type: "InnerProduct"
  bottom: "pool3"
  top: "ip1"
  param {
    lr_mult: 1
    decay_mult: 250
  }
  param {
    lr_mult: 2
    decay_mult: 0
  }
  inner_product_param {
    num_output: 10
    weight_filler {
      type: "gaussian"
      std: 0.01
    }
    bias_filler {
      type: "constant"
    }
  }
}
layer {
  name: "accuracy"
  type: "Accuracy"
  bottom: "ip1"
  bottom: "label"
  top: "accuracy"
  include {
    phase: TEST
  }
}
layer {
  name: "loss"
  type: "SoftmaxWithLoss"
  bottom: "ip1"
  bottom: "label"
  top: "loss"
}
I1130 00:13:44.811324  9554 layer_factory.hpp:77] Creating layer cifar
I1130 00:13:44.811419  9554 db_lmdb.cpp:35] Opened lmdb /home/david/caffe-master/cifar10/data/lmdb/cifar10_test_lmdb
I1130 00:13:44.811434  9554 net.cpp:84] Creating Layer cifar
I1130 00:13:44.811439  9554 net.cpp:380] cifar -> data
I1130 00:13:44.811461  9554 net.cpp:380] cifar -> label
I1130 00:13:44.811467  9554 data_transformer.cpp:25] Loading mean file from: /home/david/caffe-master/cifar10/data/lmdb/mean.binaryproto
I1130 00:13:44.811625  9554 data_layer.cpp:45] output data size: 100,3,32,32
I1130 00:13:44.815804  9554 net.cpp:122] Setting up cifar
I1130 00:13:44.815845  9554 net.cpp:129] Top shape: 100 3 32 32 (307200)
I1130 00:13:44.815847  9554 net.cpp:129] Top shape: 100 (100)
I1130 00:13:44.815850  9554 net.cpp:137] Memory required for data: 1229200
I1130 00:13:44.815855  9554 layer_factory.hpp:77] Creating layer label_cifar_1_split
I1130 00:13:44.815865  9554 net.cpp:84] Creating Layer label_cifar_1_split
I1130 00:13:44.815868  9554 net.cpp:406] label_cifar_1_split <- label
I1130 00:13:44.815873  9554 net.cpp:380] label_cifar_1_split -> label_cifar_1_split_0
I1130 00:13:44.815898  9554 net.cpp:380] label_cifar_1_split -> label_cifar_1_split_1
I1130 00:13:44.816041  9554 net.cpp:122] Setting up label_cifar_1_split
I1130 00:13:44.816059  9554 net.cpp:129] Top shape: 100 (100)
I1130 00:13:44.816062  9554 net.cpp:129] Top shape: 100 (100)
I1130 00:13:44.816064  9554 net.cpp:137] Memory required for data: 1230000
I1130 00:13:44.816066  9554 layer_factory.hpp:77] Creating layer conv1
I1130 00:13:44.816092  9554 net.cpp:84] Creating Layer conv1
I1130 00:13:44.816095  9554 net.cpp:406] conv1 <- data
I1130 00:13:44.816118  9554 net.cpp:380] conv1 -> conv1
I1130 00:13:44.817528  9554 net.cpp:122] Setting up conv1
I1130 00:13:44.817541  9554 net.cpp:129] Top shape: 100 32 32 32 (3276800)
I1130 00:13:44.817543  9554 net.cpp:137] Memory required for data: 14337200
I1130 00:13:44.817574  9554 layer_factory.hpp:77] Creating layer pool1
I1130 00:13:44.817580  9554 net.cpp:84] Creating Layer pool1
I1130 00:13:44.817584  9554 net.cpp:406] pool1 <- conv1
I1130 00:13:44.817589  9554 net.cpp:380] pool1 -> pool1
I1130 00:13:44.817661  9554 net.cpp:122] Setting up pool1
I1130 00:13:44.817665  9554 net.cpp:129] Top shape: 100 32 16 16 (819200)
I1130 00:13:44.817685  9554 net.cpp:137] Memory required for data: 17614000
I1130 00:13:44.817687  9554 layer_factory.hpp:77] Creating layer relu1
I1130 00:13:44.817692  9554 net.cpp:84] Creating Layer relu1
I1130 00:13:44.817711  9554 net.cpp:406] relu1 <- pool1
I1130 00:13:44.817715  9554 net.cpp:367] relu1 -> pool1 (in-place)
I1130 00:13:44.817891  9554 net.cpp:122] Setting up relu1
I1130 00:13:44.817898  9554 net.cpp:129] Top shape: 100 32 16 16 (819200)
I1130 00:13:44.817900  9554 net.cpp:137] Memory required for data: 20890800
I1130 00:13:44.817903  9554 layer_factory.hpp:77] Creating layer norm1
I1130 00:13:44.817908  9554 net.cpp:84] Creating Layer norm1
I1130 00:13:44.817910  9554 net.cpp:406] norm1 <- pool1
I1130 00:13:44.817914  9554 net.cpp:380] norm1 -> norm1
I1130 00:13:44.818979  9554 net.cpp:122] Setting up norm1
I1130 00:13:44.819061  9554 net.cpp:129] Top shape: 100 32 16 16 (819200)
I1130 00:13:44.819067  9554 net.cpp:137] Memory required for data: 24167600
I1130 00:13:44.819072  9554 layer_factory.hpp:77] Creating layer conv2
I1130 00:13:44.819106  9554 net.cpp:84] Creating Layer conv2
I1130 00:13:44.819113  9554 net.cpp:406] conv2 <- norm1
I1130 00:13:44.819138  9554 net.cpp:380] conv2 -> conv2
I1130 00:13:44.821744  9554 net.cpp:122] Setting up conv2
I1130 00:13:44.821784  9554 net.cpp:129] Top shape: 100 32 16 16 (819200)
I1130 00:13:44.821786  9554 net.cpp:137] Memory required for data: 27444400
I1130 00:13:44.821796  9554 layer_factory.hpp:77] Creating layer relu2
I1130 00:13:44.821820  9554 net.cpp:84] Creating Layer relu2
I1130 00:13:44.821823  9554 net.cpp:406] relu2 <- conv2
I1130 00:13:44.821827  9554 net.cpp:367] relu2 -> conv2 (in-place)
I1130 00:13:44.822024  9554 net.cpp:122] Setting up relu2
I1130 00:13:44.822031  9554 net.cpp:129] Top shape: 100 32 16 16 (819200)
I1130 00:13:44.822057  9554 net.cpp:137] Memory required for data: 30721200
I1130 00:13:44.822059  9554 layer_factory.hpp:77] Creating layer pool2
I1130 00:13:44.822065  9554 net.cpp:84] Creating Layer pool2
I1130 00:13:44.822067  9554 net.cpp:406] pool2 <- conv2
I1130 00:13:44.822070  9554 net.cpp:380] pool2 -> pool2
I1130 00:13:44.822288  9554 net.cpp:122] Setting up pool2
I1130 00:13:44.822295  9554 net.cpp:129] Top shape: 100 32 8 8 (204800)
I1130 00:13:44.822319  9554 net.cpp:137] Memory required for data: 31540400
I1130 00:13:44.822320  9554 layer_factory.hpp:77] Creating layer norm2
I1130 00:13:44.822325  9554 net.cpp:84] Creating Layer norm2
I1130 00:13:44.822327  9554 net.cpp:406] norm2 <- pool2
I1130 00:13:44.822331  9554 net.cpp:380] norm2 -> norm2
I1130 00:13:44.822885  9554 net.cpp:122] Setting up norm2
I1130 00:13:44.822895  9554 net.cpp:129] Top shape: 100 32 8 8 (204800)
I1130 00:13:44.822918  9554 net.cpp:137] Memory required for data: 32359600
I1130 00:13:44.822921  9554 layer_factory.hpp:77] Creating layer conv3
I1130 00:13:44.822955  9554 net.cpp:84] Creating Layer conv3
I1130 00:13:44.822958  9554 net.cpp:406] conv3 <- norm2
I1130 00:13:44.822974  9554 net.cpp:380] conv3 -> conv3
I1130 00:13:44.824676  9554 net.cpp:122] Setting up conv3
I1130 00:13:44.824686  9554 net.cpp:129] Top shape: 100 64 8 8 (409600)
I1130 00:13:44.824707  9554 net.cpp:137] Memory required for data: 33998000
I1130 00:13:44.824714  9554 layer_factory.hpp:77] Creating layer relu3
I1130 00:13:44.824718  9554 net.cpp:84] Creating Layer relu3
I1130 00:13:44.824721  9554 net.cpp:406] relu3 <- conv3
I1130 00:13:44.824724  9554 net.cpp:367] relu3 -> conv3 (in-place)
I1130 00:13:44.824892  9554 net.cpp:122] Setting up relu3
I1130 00:13:44.824898  9554 net.cpp:129] Top shape: 100 64 8 8 (409600)
I1130 00:13:44.824918  9554 net.cpp:137] Memory required for data: 35636400
I1130 00:13:44.824920  9554 layer_factory.hpp:77] Creating layer pool3
I1130 00:13:44.824924  9554 net.cpp:84] Creating Layer pool3
I1130 00:13:44.824926  9554 net.cpp:406] pool3 <- conv3
I1130 00:13:44.824929  9554 net.cpp:380] pool3 -> pool3
I1130 00:13:44.825104  9554 net.cpp:122] Setting up pool3
I1130 00:13:44.825110  9554 net.cpp:129] Top shape: 100 64 4 4 (102400)
I1130 00:13:44.825131  9554 net.cpp:137] Memory required for data: 36046000
I1130 00:13:44.825134  9554 layer_factory.hpp:77] Creating layer ip1
I1130 00:13:44.825137  9554 net.cpp:84] Creating Layer ip1
I1130 00:13:44.825140  9554 net.cpp:406] ip1 <- pool3
I1130 00:13:44.825143  9554 net.cpp:380] ip1 -> ip1
I1130 00:13:44.825314  9554 net.cpp:122] Setting up ip1
I1130 00:13:44.825318  9554 net.cpp:129] Top shape: 100 10 (1000)
I1130 00:13:44.825320  9554 net.cpp:137] Memory required for data: 36050000
I1130 00:13:44.825342  9554 layer_factory.hpp:77] Creating layer ip1_ip1_0_split
I1130 00:13:44.825345  9554 net.cpp:84] Creating Layer ip1_ip1_0_split
I1130 00:13:44.825348  9554 net.cpp:406] ip1_ip1_0_split <- ip1
I1130 00:13:44.825351  9554 net.cpp:380] ip1_ip1_0_split -> ip1_ip1_0_split_0
I1130 00:13:44.825356  9554 net.cpp:380] ip1_ip1_0_split -> ip1_ip1_0_split_1
I1130 00:13:44.825383  9554 net.cpp:122] Setting up ip1_ip1_0_split
I1130 00:13:44.825400  9554 net.cpp:129] Top shape: 100 10 (1000)
I1130 00:13:44.825402  9554 net.cpp:129] Top shape: 100 10 (1000)
I1130 00:13:44.825404  9554 net.cpp:137] Memory required for data: 36058000
I1130 00:13:44.825407  9554 layer_factory.hpp:77] Creating layer accuracy
I1130 00:13:44.825428  9554 net.cpp:84] Creating Layer accuracy
I1130 00:13:44.825430  9554 net.cpp:406] accuracy <- ip1_ip1_0_split_0
I1130 00:13:44.825433  9554 net.cpp:406] accuracy <- label_cifar_1_split_0
I1130 00:13:44.825436  9554 net.cpp:380] accuracy -> accuracy
…
