…
I1130 10:22:08.582365  3078 net.cpp:294] The NetState phase (0) differed from the phase (1) specified by a rule in layer accuracy
I1130 10:22:08.582686  3078 net.cpp:51] Initializing net from parameters: 
name: "CIFAR10_full"
state {
  phase: TRAIN
  level: 0
  stage: ""
}
layer {
  name: "cifar"
  type: "Data"
  top: "data"
  top: "label"
  include {
    phase: TRAIN
  }
  transform_param {
    mean_file: "/home/david/caffe-master/cifar10/data/lmdb/mean.binaryproto"
  }
  data_param {
    source: "/home/david/caffe-master/cifar10/data/lmdb/cifar10_train_lmdb"
    batch_size: 100
    backend: LMDB
  }
}
layer {
  name: "conv1"
  type: "Convolution"
  bottom: "data"
  top: "conv1"
  param {
    lr_mult: 1
  }
  param {
    lr_mult: 2
  }
  convolution_param {
    num_output: 32
    pad: 2
    kernel_size: 5
    stride: 1
    weight_filler {
      type: "gaussian"
      std: 0.0001
    }
    bias_filler {
      type: "constant"
    }
  }
}
layer {
  name: "pool1"
  type: "Pooling"
  bottom: "conv1"
  top: "pool1"
  pooling_param {
    pool: MAX
    kernel_size: 3
    stride: 2
  }
}
layer {
  name: "relu1"
  type: "ReLU"
  bottom: "pool1"
  top: "pool1"
}
layer {
  name: "norm1"
  type: "LRN"
  bottom: "pool1"
  top: "norm1"
  lrn_param {
    local_size: 3
    alpha: 5e-05
    beta: 0.75
    norm_region: WITHIN_CHANNEL
  }
}
layer {
  name: "conv2"
  type: "Convolution"
  bottom: "norm1"
  top: "conv2"
  param {
    lr_mult: 1
  }
  param {
    lr_mult: 2
  }
  convolution_param {
    num_output: 32
    pad: 2
    kernel_size: 5
    stride: 1
    weight_filler {
      type: "gaussian"
      std: 0.01
    }
    bias_filler {
      type: "constant"
    }
  }
}
layer {
  name: "relu2"
  type: "ReLU"
  bottom: "conv2"
  top: "conv2"
}
layer {
  name: "pool2"
  type: "Pooling"
  bottom: "conv2"
  top: "pool2"
  pooling_param {
    pool: AVE
    kernel_size: 3
    stride: 2
  }
}
layer {
  name: "norm2"
  type: "LRN"
  bottom: "pool2"
  top: "norm2"
  lrn_param {
    local_size: 3
    alpha: 5e-05
    beta: 0.75
    norm_region: WITHIN_CHANNEL
  }
}
layer {
  name: "conv3"
  type: "Convolution"
  bottom: "norm2"
  top: "conv3"
  convolution_param {
    num_output: 64
    pad: 2
    kernel_size: 5
    stride: 1
    weight_filler {
      type: "gaussian"
      std: 0.01
    }
    bias_filler {
      type: "constant"
    }
  }
}
layer {
  name: "relu3"
  type: "ReLU"
  bottom: "conv3"
  top: "conv3"
}
layer {
  name: "pool3"
  type: "Pooling"
  bottom: "conv3"
  top: "pool3"
  pooling_param {
    pool: AVE
    kernel_size: 3
    stride: 2
  }
}
layer {
  name: "ip1"
  type: "InnerProduct"
  bottom: "pool3"
  top: "ip1"
  param {
    lr_mult: 1
    decay_mult: 250
  }
  param {
    lr_mult: 2
    decay_mult: 0
  }
  inner_product_param {
    num_output: 10
    weight_filler {
      type: "gaussian"
      std: 0.01
    }
    bias_filler {
      type: "constant"
    }
  }
}
layer {
  name: "loss"
  type: "SoftmaxWithLoss"
  bottom: "ip1"
  bottom: "label"
  top: "loss"
}
I1130 10:22:08.582856  3078 layer_factory.hpp:77] Creating layer cifar
I1130 10:22:08.583109  3078 db_lmdb.cpp:35] Opened lmdb /home/david/caffe-master/cifar10/data/lmdb/cifar10_train_lmdb
I1130 10:22:08.583180  3078 net.cpp:84] Creating Layer cifar
I1130 10:22:08.583230  3078 net.cpp:380] cifar -> data
I1130 10:22:08.583331  3078 net.cpp:380] cifar -> label
I1130 10:22:08.583369  3078 data_transformer.cpp:25] Loading mean file from: /home/david/caffe-master/cifar10/data/lmdb/mean.binaryproto
I1130 10:22:08.587954  3078 data_layer.cpp:45] output data size: 100,3,32,32
I1130 10:22:08.601879  3078 net.cpp:122] Setting up cifar
I1130 10:22:08.601928  3078 net.cpp:129] Top shape: 100 3 32 32 (307200)
I1130 10:22:08.601943  3078 net.cpp:129] Top shape: 100 (100)
I1130 10:22:08.601949  3078 net.cpp:137] Memory required for data: 1229200
I1130 10:22:08.601968  3078 layer_factory.hpp:77] Creating layer conv1
I1130 10:22:08.602011  3078 net.cpp:84] Creating Layer conv1
I1130 10:22:08.602025  3078 net.cpp:406] conv1 <- data
I1130 10:22:08.602054  3078 net.cpp:380] conv1 -> conv1
I1130 10:22:13.508635  3078 net.cpp:122] Setting up conv1
I1130 10:22:13.508697  3078 net.cpp:129] Top shape: 100 32 32 32 (3276800)
I1130 10:22:13.508708  3078 net.cpp:137] Memory required for data: 14336400
I1130 10:22:13.508759  3078 layer_factory.hpp:77] Creating layer pool1
I1130 10:22:13.508785  3078 net.cpp:84] Creating Layer pool1
I1130 10:22:13.508795  3078 net.cpp:406] pool1 <- conv1
I1130 10:22:13.508810  3078 net.cpp:380] pool1 -> pool1
I1130 10:22:13.521636  3078 net.cpp:122] Setting up pool1
I1130 10:22:13.521708  3078 net.cpp:129] Top shape: 100 32 16 16 (819200)
I1130 10:22:13.521725  3078 net.cpp:137] Memory required for data: 17613200
I1130 10:22:13.521744  3078 layer_factory.hpp:77] Creating layer relu1
I1130 10:22:13.521767  3078 net.cpp:84] Creating Layer relu1
I1130 10:22:13.521780  3078 net.cpp:406] relu1 <- pool1
I1130 10:22:13.521797  3078 net.cpp:367] relu1 -> pool1 (in-place)
I1130 10:22:13.522563  3078 net.cpp:122] Setting up relu1
I1130 10:22:13.522594  3078 net.cpp:129] Top shape: 100 32 16 16 (819200)
I1130 10:22:13.522603  3078 net.cpp:137] Memory required for data: 20890000
I1130 10:22:13.522610  3078 layer_factory.hpp:77] Creating layer norm1
I1130 10:22:13.522636  3078 net.cpp:84] Creating Layer norm1
I1130 10:22:13.522645  3078 net.cpp:406] norm1 <- pool1
I1130 10:22:13.522660  3078 net.cpp:380] norm1 -> norm1
I1130 10:22:13.525238  3078 net.cpp:122] Setting up norm1
I1130 10:22:13.525305  3078 net.cpp:129] Top shape: 100 32 16 16 (819200)
I1130 10:22:13.525323  3078 net.cpp:137] Memory required for data: 24166800
I1130 10:22:13.525343  3078 layer_factory.hpp:77] Creating layer conv2
I1130 10:22:13.525394  3078 net.cpp:84] Creating Layer conv2
I1130 10:22:13.525409  3078 net.cpp:406] conv2 <- norm1
I1130 10:22:13.525440  3078 net.cpp:380] conv2 -> conv2
I1130 10:22:13.532775  3078 net.cpp:122] Setting up conv2
I1130 10:22:13.532825  3078 net.cpp:129] Top shape: 100 32 16 16 (819200)
I1130 10:22:13.532835  3078 net.cpp:137] Memory required for data: 27443600
I1130 10:22:13.532862  3078 layer_factory.hpp:77] Creating layer relu2
I1130 10:22:13.532884  3078 net.cpp:84] Creating Layer relu2
I1130 10:22:13.532894  3078 net.cpp:406] relu2 <- conv2
I1130 10:22:13.532910  3078 net.cpp:367] relu2 -> conv2 (in-place)
I1130 10:22:13.534214  3078 net.cpp:122] Setting up relu2
I1130 10:22:13.534247  3078 net.cpp:129] Top shape: 100 32 16 16 (819200)
I1130 10:22:13.534256  3078 net.cpp:137] Memory required for data: 30720400
I1130 10:22:13.534265  3078 layer_factory.hpp:77] Creating layer pool2
I1130 10:22:13.534281  3078 net.cpp:84] Creating Layer pool2
I1130 10:22:13.534289  3078 net.cpp:406] pool2 <- conv2
I1130 10:22:13.534306  3078 net.cpp:380] pool2 -> pool2
I1130 10:22:13.534984  3078 net.cpp:122] Setting up pool2
I1130 10:22:13.535012  3078 net.cpp:129] Top shape: 100 32 8 8 (204800)
I1130 10:22:13.535020  3078 net.cpp:137] Memory required for data: 31539600
I1130 10:22:13.535028  3078 layer_factory.hpp:77] Creating layer norm2
I1130 10:22:13.535050  3078 net.cpp:84] Creating Layer norm2
I1130 10:22:13.535059  3078 net.cpp:406] norm2 <- pool2
I1130 10:22:13.535073  3078 net.cpp:380] norm2 -> norm2
I1130 10:22:13.536098  3078 net.cpp:122] Setting up norm2
I1130 10:22:13.536134  3078 net.cpp:129] Top shape: 100 32 8 8 (204800)
I1130 10:22:13.536180  3078 net.cpp:137] Memory required for data: 32358800
I1130 10:22:13.536190  3078 layer_factory.hpp:77] Creating layer conv3
I1130 10:22:13.536219  3078 net.cpp:84] Creating Layer conv3
I1130 10:22:13.536229  3078 net.cpp:406] conv3 <- norm2
I1130 10:22:13.536244  3078 net.cpp:380] conv3 -> conv3
I1130 10:22:13.541504  3078 net.cpp:122] Setting up conv3
I1130 10:22:13.541553  3078 net.cpp:129] Top shape: 100 64 8 8 (409600)
I1130 10:22:13.541563  3078 net.cpp:137] Memory required for data: 33997200
I1130 10:22:13.541589  3078 layer_factory.hpp:77] Creating layer relu3
I1130 10:22:13.541623  3078 net.cpp:84] Creating Layer relu3
I1130 10:22:13.541633  3078 net.cpp:406] relu3 <- conv3
I1130 10:22:13.541654  3078 net.cpp:367] relu3 -> conv3 (in-place)
I1130 10:22:13.543658  3078 net.cpp:122] Setting up relu3
I1130 10:22:13.543709  3078 net.cpp:129] Top shape: 100 64 8 8 (409600)
I1130 10:22:13.543720  3078 net.cpp:137] Memory required for data: 35635600
I1130 10:22:13.543730  3078 layer_factory.hpp:77] Creating layer pool3
I1130 10:22:13.543751  3078 net.cpp:84] Creating Layer pool3
I1130 10:22:13.543761  3078 net.cpp:406] pool3 <- conv3
I1130 10:22:13.543781  3078 net.cpp:380] pool3 -> pool3
I1130 10:22:13.544481  3078 net.cpp:122] Setting up pool3
I1130 10:22:13.544508  3078 net.cpp:129] Top shape: 100 64 4 4 (102400)
I1130 10:22:13.544517  3078 net.cpp:137] Memory required for data: 36045200
I1130 10:22:13.544525  3078 layer_factory.hpp:77] Creating layer ip1
I1130 10:22:13.544545  3078 net.cpp:84] Creating Layer ip1
I1130 10:22:13.544553  3078 net.cpp:406] ip1 <- pool3
I1130 10:22:13.544574  3078 net.cpp:380] ip1 -> ip1
I1130 10:22:13.547327  3078 net.cpp:122] Setting up ip1
I1130 10:22:13.547361  3078 net.cpp:129] Top shape: 100 10 (1000)
I1130 10:22:13.547369  3078 net.cpp:137] Memory required for data: 36049200
I1130 10:22:13.547387  3078 layer_factory.hpp:77] Creating layer loss
I1130 10:22:13.547420  3078 net.cpp:84] Creating Layer loss
I1130 10:22:13.547430  3078 net.cpp:406] loss <- ip1
I1130 10:22:13.547442  3078 net.cpp:406] loss <- label
I1130 10:22:13.547461  3078 net.cpp:380] loss -> loss
I1130 10:22:13.547495  3078 layer_factory.hpp:77] Creating layer loss
…
I1130 10:22:13.549229  3078 net.cpp:294] The NetState phase (1) differed from the phase (0) specified by a rule in layer cifar
I1130 10:22:13.549525  3078 net.cpp:51] Initializing net from parameters: 
name: "CIFAR10_full"
state {
  phase: TEST
}
layer {
  name: "cifar"
  type: "Data"
  top: "data"
  top: "label"
  include {
    phase: TEST
  }
  transform_param {
    mean_file: "/home/david/caffe-master/cifar10/data/lmdb/mean.binaryproto"
  }
  data_param {
    source: "/home/david/caffe-master/cifar10/data/lmdb/cifar10_test_lmdb"
    batch_size: 100
    backend: LMDB
  }
}
layer {
  name: "conv1"
  type: "Convolution"
  bottom: "data"
  top: "conv1"
  param {
    lr_mult: 1
  }
  param {
    lr_mult: 2
  }
  convolution_param {
    num_output: 32
    pad: 2
    kernel_size: 5
    stride: 1
    weight_filler {
      type: "gaussian"
      std: 0.0001
    }
    bias_filler {
      type: "constant"
    }
  }
}
layer {
  name: "pool1"
  type: "Pooling"
  bottom: "conv1"
  top: "pool1"
  pooling_param {
    pool: MAX
    kernel_size: 3
    stride: 2
  }
}
layer {
  name: "relu1"
  type: "ReLU"
  bottom: "pool1"
  top: "pool1"
}
layer {
  name: "norm1"
  type: "LRN"
  bottom: "pool1"
  top: "norm1"
  lrn_param {
    local_size: 3
    alpha: 5e-05
    beta: 0.75
    norm_region: WITHIN_CHANNEL
  }
}
layer {
  name: "conv2"
  type: "Convolution"
  bottom: "norm1"
  top: "conv2"
  param {
    lr_mult: 1
  }
  param {
    lr_mult: 2
  }
  convolution_param {
    num_output: 32
    pad: 2
    kernel_size: 5
    stride: 1
    weight_filler {
      type: "gaussian"
      std: 0.01
    }
    bias_filler {
      type: "constant"
    }
  }
}
layer {
  name: "relu2"
  type: "ReLU"
  bottom: "conv2"
  top: "conv2"
}
layer {
  name: "pool2"
  type: "Pooling"
  bottom: "conv2"
  top: "pool2"
  pooling_param {
    pool: AVE
    kernel_size: 3
    stride: 2
  }
}
layer {
  name: "norm2"
  type: "LRN"
  bottom: "pool2"
  top: "norm2"
  lrn_param {
    local_size: 3
    alpha: 5e-05
    beta: 0.75
    norm_region: WITHIN_CHANNEL
  }
}
layer {
  name: "conv3"
  type: "Convolution"
  bottom: "norm2"
  top: "conv3"
  convolution_param {
    num_output: 64
    pad: 2
    kernel_size: 5
    stride: 1
    weight_filler {
      type: "gaussian"
      std: 0.01
    }
    bias_filler {
      type: "constant"
    }
  }
}
layer {
  name: "relu3"
  type: "ReLU"
  bottom: "conv3"
  top: "conv3"
}
layer {
  name: "pool3"
  type: "Pooling"
  bottom: "conv3"
  top: "pool3"
  pooling_param {
    pool: AVE
    kernel_size: 3
    stride: 2
  }
}
layer {
  name: "ip1"
  type: "InnerProduct"
  bottom: "pool3"
  top: "ip1"
  param {
    lr_mult: 1
    decay_mult: 250
  }
  param {
    lr_mult: 2
    decay_mult: 0
  }
  inner_product_param {
    num_output: 10
    weight_filler {
      type: "gaussian"
      std: 0.01
    }
    bias_filler {
      type: "constant"
    }
  }
}
layer {
  name: "accuracy"
  type: "Accuracy"
  bottom: "ip1"
  bottom: "label"
  top: "accuracy"
  include {
    phase: TEST
  }
}
layer {
  name: "loss"
  type: "SoftmaxWithLoss"
  bottom: "ip1"
  bottom: "label"
  top: "loss"
}
I1130 10:22:13.549758  3078 layer_factory.hpp:77] Creating layer cifar
I1130 10:22:13.549892  3078 db_lmdb.cpp:35] Opened lmdb /home/david/caffe-master/cifar10/data/lmdb/cifar10_test_lmdb
I1130 10:22:13.549932  3078 net.cpp:84] Creating Layer cifar
I1130 10:22:13.549949  3078 net.cpp:380] cifar -> data
I1130 10:22:13.549970  3078 net.cpp:380] cifar -> label
I1130 10:22:13.549988  3078 data_transformer.cpp:25] Loading mean file from: /home/david/caffe-master/cifar10/data/lmdb/mean.binaryproto
I1130 10:22:13.550454  3078 data_layer.cpp:45] output data size: 100,3,32,32
I1130 10:22:13.559228  3078 net.cpp:122] Setting up cifar
I1130 10:22:13.559267  3078 net.cpp:129] Top shape: 100 3 32 32 (307200)
I1130 10:22:13.559278  3078 net.cpp:129] Top shape: 100 (100)
I1130 10:22:13.559285  3078 net.cpp:137] Memory required for data: 1229200
I1130 10:22:13.559294  3078 layer_factory.hpp:77] Creating layer label_cifar_1_split
I1130 10:22:13.559321  3078 net.cpp:84] Creating Layer label_cifar_1_split
I1130 10:22:13.559331  3078 net.cpp:406] label_cifar_1_split <- label
I1130 10:22:13.559346  3078 net.cpp:380] label_cifar_1_split -> label_cifar_1_split_0
I1130 10:22:13.559362  3078 net.cpp:380] label_cifar_1_split -> label_cifar_1_split_1
I1130 10:22:13.559584  3078 net.cpp:122] Setting up label_cifar_1_split
I1130 10:22:13.559608  3078 net.cpp:129] Top shape: 100 (100)
I1130 10:22:13.559614  3078 net.cpp:129] Top shape: 100 (100)
I1130 10:22:13.559618  3078 net.cpp:137] Memory required for data: 1230000
I1130 10:22:13.559623  3078 layer_factory.hpp:77] Creating layer conv1
I1130 10:22:13.559643  3078 net.cpp:84] Creating Layer conv1
I1130 10:22:13.559648  3078 net.cpp:406] conv1 <- data
I1130 10:22:13.559658  3078 net.cpp:380] conv1 -> conv1
I1130 10:22:13.561890  3078 net.cpp:122] Setting up conv1
I1130 10:22:13.561911  3078 net.cpp:129] Top shape: 100 32 32 32 (3276800)
I1130 10:22:13.561916  3078 net.cpp:137] Memory required for data: 14337200
I1130 10:22:13.561929  3078 layer_factory.hpp:77] Creating layer pool1
I1130 10:22:13.561939  3078 net.cpp:84] Creating Layer pool1
I1130 10:22:13.561944  3078 net.cpp:406] pool1 <- conv1
I1130 10:22:13.561949  3078 net.cpp:380] pool1 -> pool1
I1130 10:22:13.562005  3078 net.cpp:122] Setting up pool1
I1130 10:22:13.562014  3078 net.cpp:129] Top shape: 100 32 16 16 (819200)
I1130 10:22:13.562017  3078 net.cpp:137] Memory required for data: 17614000
I1130 10:22:13.562021  3078 layer_factory.hpp:77] Creating layer relu1
I1130 10:22:13.562028  3078 net.cpp:84] Creating Layer relu1
I1130 10:22:13.562031  3078 net.cpp:406] relu1 <- pool1
I1130 10:22:13.562038  3078 net.cpp:367] relu1 -> pool1 (in-place)
I1130 10:22:13.562330  3078 net.cpp:122] Setting up relu1
I1130 10:22:13.562341  3078 net.cpp:129] Top shape: 100 32 16 16 (819200)
I1130 10:22:13.562345  3078 net.cpp:137] Memory required for data: 20890800
I1130 10:22:13.562348  3078 layer_factory.hpp:77] Creating layer norm1
I1130 10:22:13.562361  3078 net.cpp:84] Creating Layer norm1
I1130 10:22:13.562366  3078 net.cpp:406] norm1 <- pool1
I1130 10:22:13.562371  3078 net.cpp:380] norm1 -> norm1
I1130 10:22:13.564043  3078 net.cpp:122] Setting up norm1
I1130 10:22:13.564064  3078 net.cpp:129] Top shape: 100 32 16 16 (819200)
I1130 10:22:13.564070  3078 net.cpp:137] Memory required for data: 24167600
I1130 10:22:13.564075  3078 layer_factory.hpp:77] Creating layer conv2
I1130 10:22:13.564086  3078 net.cpp:84] Creating Layer conv2
I1130 10:22:13.564091  3078 net.cpp:406] conv2 <- norm1
I1130 10:22:13.564100  3078 net.cpp:380] conv2 -> conv2
I1130 10:22:13.566175  3078 net.cpp:122] Setting up conv2
I1130 10:22:13.566191  3078 net.cpp:129] Top shape: 100 32 16 16 (819200)
I1130 10:22:13.566195  3078 net.cpp:137] Memory required for data: 27444400
I1130 10:22:13.566205  3078 layer_factory.hpp:77] Creating layer relu2
I1130 10:22:13.566210  3078 net.cpp:84] Creating Layer relu2
I1130 10:22:13.566215  3078 net.cpp:406] relu2 <- conv2
I1130 10:22:13.566220  3078 net.cpp:367] relu2 -> conv2 (in-place)
I1130 10:22:13.566478  3078 net.cpp:122] Setting up relu2
I1130 10:22:13.566489  3078 net.cpp:129] Top shape: 100 32 16 16 (819200)
I1130 10:22:13.566493  3078 net.cpp:137] Memory required for data: 30721200
I1130 10:22:13.566495  3078 layer_factory.hpp:77] Creating layer pool2
I1130 10:22:13.566503  3078 net.cpp:84] Creating Layer pool2
I1130 10:22:13.566504  3078 net.cpp:406] pool2 <- conv2
I1130 10:22:13.566511  3078 net.cpp:380] pool2 -> pool2
I1130 10:22:13.566764  3078 net.cpp:122] Setting up pool2
I1130 10:22:13.566774  3078 net.cpp:129] Top shape: 100 32 8 8 (204800)
I1130 10:22:13.566778  3078 net.cpp:137] Memory required for data: 31540400
I1130 10:22:13.566781  3078 layer_factory.hpp:77] Creating layer norm2
I1130 10:22:13.566787  3078 net.cpp:84] Creating Layer norm2
I1130 10:22:13.566790  3078 net.cpp:406] norm2 <- pool2
I1130 10:22:13.566797  3078 net.cpp:380] norm2 -> norm2
I1130 10:22:13.567545  3078 net.cpp:122] Setting up norm2
I1130 10:22:13.567561  3078 net.cpp:129] Top shape: 100 32 8 8 (204800)
I1130 10:22:13.567565  3078 net.cpp:137] Memory required for data: 32359600
I1130 10:22:13.567569  3078 layer_factory.hpp:77] Creating layer conv3
I1130 10:22:13.567579  3078 net.cpp:84] Creating Layer conv3
I1130 10:22:13.567582  3078 net.cpp:406] conv3 <- norm2
I1130 10:22:13.567601  3078 net.cpp:380] conv3 -> conv3
I1130 10:22:13.569597  3078 net.cpp:122] Setting up conv3
I1130 10:22:13.569617  3078 net.cpp:129] Top shape: 100 64 8 8 (409600)
I1130 10:22:13.569619  3078 net.cpp:137] Memory required for data: 33998000
I1130 10:22:13.569631  3078 layer_factory.hpp:77] Creating layer relu3
I1130 10:22:13.569638  3078 net.cpp:84] Creating Layer relu3
I1130 10:22:13.569643  3078 net.cpp:406] relu3 <- conv3
I1130 10:22:13.569648  3078 net.cpp:367] relu3 -> conv3 (in-place)
I1130 10:22:13.569895  3078 net.cpp:122] Setting up relu3
I1130 10:22:13.569905  3078 net.cpp:129] Top shape: 100 64 8 8 (409600)
I1130 10:22:13.569908  3078 net.cpp:137] Memory required for data: 35636400
I1130 10:22:13.569911  3078 layer_factory.hpp:77] Creating layer pool3
I1130 10:22:13.569917  3078 net.cpp:84] Creating Layer pool3
I1130 10:22:13.569921  3078 net.cpp:406] pool3 <- conv3
I1130 10:22:13.569926  3078 net.cpp:380] pool3 -> pool3
I1130 10:22:13.570170  3078 net.cpp:122] Setting up pool3
I1130 10:22:13.570180  3078 net.cpp:129] Top shape: 100 64 4 4 (102400)
I1130 10:22:13.570183  3078 net.cpp:137] Memory required for data: 36046000
I1130 10:22:13.570186  3078 layer_factory.hpp:77] Creating layer ip1
I1130 10:22:13.570194  3078 net.cpp:84] Creating Layer ip1
I1130 10:22:13.570196  3078 net.cpp:406] ip1 <- pool3
I1130 10:22:13.570201  3078 net.cpp:380] ip1 -> ip1
I1130 10:22:13.570432  3078 net.cpp:122] Setting up ip1
I1130 10:22:13.570438  3078 net.cpp:129] Top shape: 100 10 (1000)
I1130 10:22:13.570441  3078 net.cpp:137] Memory required for data: 36050000
I1130 10:22:13.570447  3078 layer_factory.hpp:77] Creating layer ip1_ip1_0_split
I1130 10:22:13.570453  3078 net.cpp:84] Creating Layer ip1_ip1_0_split
I1130 10:22:13.570456  3078 net.cpp:406] ip1_ip1_0_split <- ip1
I1130 10:22:13.570461  3078 net.cpp:380] ip1_ip1_0_split -> ip1_ip1_0_split_0
I1130 10:22:13.570466  3078 net.cpp:380] ip1_ip1_0_split -> ip1_ip1_0_split_1
I1130 10:22:13.570508  3078 net.cpp:122] Setting up ip1_ip1_0_split
I1130 10:22:13.570514  3078 net.cpp:129] Top shape: 100 10 (1000)
I1130 10:22:13.570518  3078 net.cpp:129] Top shape: 100 10 (1000)
I1130 10:22:13.570519  3078 net.cpp:137] Memory required for data: 36058000
I1130 10:22:13.570523  3078 layer_factory.hpp:77] Creating layer accuracy
I1130 10:22:13.570528  3078 net.cpp:84] Creating Layer accuracy
I1130 10:22:13.570531  3078 net.cpp:406] accuracy <- ip1_ip1_0_split_0
I1130 10:22:13.570535  3078 net.cpp:406] accuracy <- label_cifar_1_split_0
I1130 10:22:13.570540  3078 net.cpp:380] accuracy -> accuracy
…
