…
W1211 15:32:21.257192  4094 _caffe.cpp:140] Use this instead (with the named "weights" parameter):
W1211 15:32:21.257195  4094 _caffe.cpp:142] Net('/home/david/caffe-master/cifar10/prototxt/cifar10_full_deploy.prototxt', 1, weights='/home/david/caffe-master/cifar10/model/cifar10_full_iter_70000.caffemodel')
I1211 15:32:21.708665  4094 net.cpp:51] Initializing net from parameters: 
name: "CIFAR10_full"
state {
  phase: TEST
  level: 0
}
layer {
  name: "data"
  type: "Input"
  top: "data"
  input_param {
    shape {
      dim: 1
      dim: 3
      dim: 32
      dim: 32
    }
  }
}
layer {
  name: "conv1"
  type: "Convolution"
  bottom: "data"
  top: "conv1"
  param {
    lr_mult: 1
  }
  param {
    lr_mult: 2
  }
  convolution_param {
    num_output: 32
    pad: 2
    kernel_size: 5
    stride: 1
  }
}
layer {
  name: "pool1"
  type: "Pooling"
  bottom: "conv1"
  top: "pool1"
  pooling_param {
    pool: MAX
    kernel_size: 3
    stride: 2
  }
}
layer {
  name: "relu1"
  type: "ReLU"
  bottom: "pool1"
  top: "pool1"
}
layer {
  name: "norm1"
  type: "LRN"
  bottom: "pool1"
  top: "norm1"
  lrn_param {
    local_size: 3
    alpha: 5e-05
    beta: 0.75
    norm_region: WITHIN_CHANNEL
  }
}
layer {
  name: "conv2"
  type: "Convolution"
  bottom: "norm1"
  top: "conv2"
  param {
    lr_mult: 1
  }
  param {
    lr_mult: 2
  }
  convolution_param {
    num_output: 32
    pad: 2
    kernel_size: 5
    stride: 1
  }
}
layer {
  name: "relu2"
  type: "ReLU"
  bottom: "conv2"
  top: "conv2"
}
layer {
  name: "pool2"
  type: "Pooling"
  bottom: "conv2"
  top: "pool2"
  pooling_param {
    pool: AVE
    kernel_size: 3
    stride: 2
  }
}
layer {
  name: "norm2"
  type: "LRN"
  bottom: "pool2"
  top: "norm2"
  lrn_param {
    local_size: 3
    alpha: 5e-05
    beta: 0.75
    norm_region: WITHIN_CHANNEL
  }
}
layer {
  name: "conv3"
  type: "Convolution"
  bottom: "norm2"
  top: "conv3"
  convolution_param {
    num_output: 64
    pad: 2
    kernel_size: 5
    stride: 1
  }
}
layer {
  name: "relu3"
  type: "ReLU"
  bottom: "conv3"
  top: "conv3"
}
layer {
  name: "pool3"
  type: "Pooling"
  bottom: "conv3"
  top: "pool3"
  pooling_param {
    pool: AVE
    kernel_size: 3
    stride: 2
  }
}
layer {
  name: "ip1"
  type: "InnerProduct"
  bottom: "pool3"
  top: "ip1"
  param {
    lr_mult: 1
    decay_mult: 250
  }
  param {
    lr_mult: 2
    decay_mult: 0
  }
  inner_product_param {
    num_output: 10
  }
}
layer {
  name: "prob"
  type: "Softmax"
  bottom: "ip1"
  top: "prob"
}
I1211 15:32:21.708784  4094 layer_factory.hpp:77] Creating layer data
I1211 15:32:21.709223  4094 net.cpp:84] Creating Layer data
I1211 15:32:21.709228  4094 net.cpp:380] data -> data
I1211 15:32:21.709244  4094 net.cpp:122] Setting up data
I1211 15:32:21.709249  4094 net.cpp:129] Top shape: 1 3 32 32 (3072)
I1211 15:32:21.709252  4094 net.cpp:137] Memory required for data: 12288
I1211 15:32:21.709254  4094 layer_factory.hpp:77] Creating layer conv1
I1211 15:32:21.709262  4094 net.cpp:84] Creating Layer conv1
I1211 15:32:21.709265  4094 net.cpp:406] conv1 <- data
I1211 15:32:21.709270  4094 net.cpp:380] conv1 -> conv1
I1211 15:32:22.402359  4094 net.cpp:122] Setting up conv1
I1211 15:32:22.402406  4094 net.cpp:129] Top shape: 1 32 32 32 (32768)
I1211 15:32:22.402410  4094 net.cpp:137] Memory required for data: 143360
I1211 15:32:22.402425  4094 layer_factory.hpp:77] Creating layer pool1
I1211 15:32:22.402437  4094 net.cpp:84] Creating Layer pool1
I1211 15:32:22.402441  4094 net.cpp:406] pool1 <- conv1
I1211 15:32:22.402446  4094 net.cpp:380] pool1 -> pool1
I1211 15:32:22.402474  4094 net.cpp:122] Setting up pool1
I1211 15:32:22.402479  4094 net.cpp:129] Top shape: 1 32 16 16 (8192)
I1211 15:32:22.402482  4094 net.cpp:137] Memory required for data: 176128
I1211 15:32:22.402485  4094 layer_factory.hpp:77] Creating layer relu1
I1211 15:32:22.402489  4094 net.cpp:84] Creating Layer relu1
I1211 15:32:22.402492  4094 net.cpp:406] relu1 <- pool1
I1211 15:32:22.402518  4094 net.cpp:367] relu1 -> pool1 (in-place)
I1211 15:32:22.402693  4094 net.cpp:122] Setting up relu1
I1211 15:32:22.402699  4094 net.cpp:129] Top shape: 1 32 16 16 (8192)
I1211 15:32:22.402703  4094 net.cpp:137] Memory required for data: 208896
I1211 15:32:22.402704  4094 layer_factory.hpp:77] Creating layer norm1
I1211 15:32:22.402710  4094 net.cpp:84] Creating Layer norm1
I1211 15:32:22.402714  4094 net.cpp:406] norm1 <- pool1
I1211 15:32:22.402717  4094 net.cpp:380] norm1 -> norm1
I1211 15:32:22.402889  4094 net.cpp:122] Setting up norm1
I1211 15:32:22.402896  4094 net.cpp:129] Top shape: 1 32 16 16 (8192)
I1211 15:32:22.402899  4094 net.cpp:137] Memory required for data: 241664
I1211 15:32:22.402901  4094 layer_factory.hpp:77] Creating layer conv2
I1211 15:32:22.402909  4094 net.cpp:84] Creating Layer conv2
I1211 15:32:22.402911  4094 net.cpp:406] conv2 <- norm1
I1211 15:32:22.402915  4094 net.cpp:380] conv2 -> conv2
I1211 15:32:22.403805  4094 net.cpp:122] Setting up conv2
I1211 15:32:22.403816  4094 net.cpp:129] Top shape: 1 32 16 16 (8192)
I1211 15:32:22.403820  4094 net.cpp:137] Memory required for data: 274432
I1211 15:32:22.403825  4094 layer_factory.hpp:77] Creating layer relu2
I1211 15:32:22.403829  4094 net.cpp:84] Creating Layer relu2
I1211 15:32:22.403832  4094 net.cpp:406] relu2 <- conv2
I1211 15:32:22.403836  4094 net.cpp:367] relu2 -> conv2 (in-place)
I1211 15:32:22.404181  4094 net.cpp:122] Setting up relu2
I1211 15:32:22.404191  4094 net.cpp:129] Top shape: 1 32 16 16 (8192)
I1211 15:32:22.404193  4094 net.cpp:137] Memory required for data: 307200
I1211 15:32:22.404196  4094 layer_factory.hpp:77] Creating layer pool2
I1211 15:32:22.404201  4094 net.cpp:84] Creating Layer pool2
I1211 15:32:22.404203  4094 net.cpp:406] pool2 <- conv2
I1211 15:32:22.404207  4094 net.cpp:380] pool2 -> pool2
I1211 15:32:22.404359  4094 net.cpp:122] Setting up pool2
I1211 15:32:22.404366  4094 net.cpp:129] Top shape: 1 32 8 8 (2048)
I1211 15:32:22.404368  4094 net.cpp:137] Memory required for data: 315392
I1211 15:32:22.404371  4094 layer_factory.hpp:77] Creating layer norm2
I1211 15:32:22.404376  4094 net.cpp:84] Creating Layer norm2
I1211 15:32:22.404378  4094 net.cpp:406] norm2 <- pool2
I1211 15:32:22.404382  4094 net.cpp:380] norm2 -> norm2
I1211 15:32:22.404549  4094 net.cpp:122] Setting up norm2
I1211 15:32:22.404556  4094 net.cpp:129] Top shape: 1 32 8 8 (2048)
I1211 15:32:22.404558  4094 net.cpp:137] Memory required for data: 323584
I1211 15:32:22.404561  4094 layer_factory.hpp:77] Creating layer conv3
I1211 15:32:22.404567  4094 net.cpp:84] Creating Layer conv3
I1211 15:32:22.404568  4094 net.cpp:406] conv3 <- norm2
I1211 15:32:22.404572  4094 net.cpp:380] conv3 -> conv3
I1211 15:32:22.405274  4094 net.cpp:122] Setting up conv3
I1211 15:32:22.405283  4094 net.cpp:129] Top shape: 1 64 8 8 (4096)
I1211 15:32:22.405287  4094 net.cpp:137] Memory required for data: 339968
I1211 15:32:22.405292  4094 layer_factory.hpp:77] Creating layer relu3
I1211 15:32:22.405297  4094 net.cpp:84] Creating Layer relu3
I1211 15:32:22.405299  4094 net.cpp:406] relu3 <- conv3
I1211 15:32:22.405303  4094 net.cpp:367] relu3 -> conv3 (in-place)
I1211 15:32:22.405642  4094 net.cpp:122] Setting up relu3
I1211 15:32:22.405650  4094 net.cpp:129] Top shape: 1 64 8 8 (4096)
I1211 15:32:22.405652  4094 net.cpp:137] Memory required for data: 356352
I1211 15:32:22.405655  4094 layer_factory.hpp:77] Creating layer pool3
I1211 15:32:22.405659  4094 net.cpp:84] Creating Layer pool3
I1211 15:32:22.405663  4094 net.cpp:406] pool3 <- conv3
I1211 15:32:22.405666  4094 net.cpp:380] pool3 -> pool3
I1211 15:32:22.405818  4094 net.cpp:122] Setting up pool3
I1211 15:32:22.405825  4094 net.cpp:129] Top shape: 1 64 4 4 (1024)
I1211 15:32:22.405828  4094 net.cpp:137] Memory required for data: 360448
I1211 15:32:22.405830  4094 layer_factory.hpp:77] Creating layer ip1
I1211 15:32:22.405835  4094 net.cpp:84] Creating Layer ip1
I1211 15:32:22.405838  4094 net.cpp:406] ip1 <- pool3
I1211 15:32:22.405841  4094 net.cpp:380] ip1 -> ip1
I1211 15:32:22.405858  4094 net.cpp:122] Setting up ip1
I1211 15:32:22.405863  4094 net.cpp:129] Top shape: 1 10 (10)
I1211 15:32:22.405865  4094 net.cpp:137] Memory required for data: 360488
I1211 15:32:22.405869  4094 layer_factory.hpp:77] Creating layer prob
I1211 15:32:22.405874  4094 net.cpp:84] Creating Layer prob
I1211 15:32:22.405876  4094 net.cpp:406] prob <- ip1
I1211 15:32:22.405879  4094 net.cpp:380] prob -> prob
I1211 15:32:22.406034  4094 net.cpp:122] Setting up prob
I1211 15:32:22.406041  4094 net.cpp:129] Top shape: 1 10 (10)
I1211 15:32:22.406044  4094 net.cpp:137] Memory required for data: 360528
I1211 15:32:22.406045  4094 net.cpp:200] prob does not need backward computation.
I1211 15:32:22.406049  4094 net.cpp:200] ip1 does not need backward computation.
I1211 15:32:22.406051  4094 net.cpp:200] pool3 does not need backward computation.
I1211 15:32:22.406054  4094 net.cpp:200] relu3 does not need backward computation.
…
