…
W1209 21:41:52.874994 15100 _caffe.cpp:140] Use this instead (with the named "weights" parameter):
W1209 21:41:52.874997 15100 _caffe.cpp:142] Net('/home/david/caffe-master/cifar10/prototxt/cifar10_full_deploy.prototxt', 1, weights='/home/david/caffe-master/cifar10/model/cifar10_full_iter_70000.caffemodel')
I1209 21:41:53.333976 15100 net.cpp:51] Initializing net from parameters: 
name: "CIFAR10_full"
state {
  phase: TEST
  level: 0
}
layer {
  name: "data"
  type: "Input"
  top: "data"
  input_param {
    shape {
      dim: 1
      dim: 3
      dim: 32
      dim: 32
    }
  }
}
layer {
  name: "conv1"
  type: "Convolution"
  bottom: "data"
  top: "conv1"
  param {
    lr_mult: 1
  }
  param {
    lr_mult: 2
  }
  convolution_param {
    num_output: 32
    pad: 2
    kernel_size: 5
    stride: 1
  }
}
layer {
  name: "pool1"
  type: "Pooling"
  bottom: "conv1"
  top: "pool1"
  pooling_param {
    pool: MAX
    kernel_size: 3
    stride: 2
  }
}
layer {
  name: "relu1"
  type: "ReLU"
  bottom: "pool1"
  top: "pool1"
}
layer {
  name: "norm1"
  type: "LRN"
  bottom: "pool1"
  top: "norm1"
  lrn_param {
    local_size: 3
    alpha: 5e-05
    beta: 0.75
    norm_region: WITHIN_CHANNEL
  }
}
layer {
  name: "conv2"
  type: "Convolution"
  bottom: "norm1"
  top: "conv2"
  param {
    lr_mult: 1
  }
  param {
    lr_mult: 2
  }
  convolution_param {
    num_output: 32
    pad: 2
    kernel_size: 5
    stride: 1
  }
}
layer {
  name: "relu2"
  type: "ReLU"
  bottom: "conv2"
  top: "conv2"
}
layer {
  name: "pool2"
  type: "Pooling"
  bottom: "conv2"
  top: "pool2"
  pooling_param {
    pool: AVE
    kernel_size: 3
    stride: 2
  }
}
layer {
  name: "norm2"
  type: "LRN"
  bottom: "pool2"
  top: "norm2"
  lrn_param {
    local_size: 3
    alpha: 5e-05
    beta: 0.75
    norm_region: WITHIN_CHANNEL
  }
}
layer {
  name: "conv3"
  type: "Convolution"
  bottom: "norm2"
  top: "conv3"
  convolution_param {
    num_output: 64
    pad: 2
    kernel_size: 5
    stride: 1
  }
}
layer {
  name: "relu3"
  type: "ReLU"
  bottom: "conv3"
  top: "conv3"
}
layer {
  name: "pool3"
  type: "Pooling"
  bottom: "conv3"
  top: "pool3"
  pooling_param {
    pool: AVE
    kernel_size: 3
    stride: 2
  }
}
layer {
  name: "ip1"
  type: "InnerProduct"
  bottom: "pool3"
  top: "ip1"
  param {
    lr_mult: 1
    decay_mult: 250
  }
  param {
    lr_mult: 2
    decay_mult: 0
  }
  inner_product_param {
    num_output: 10
  }
}
layer {
  name: "prob"
  type: "Softmax"
  bottom: "ip1"
  top: "prob"
}
I1209 21:41:53.334091 15100 layer_factory.hpp:77] Creating layer data
I1209 21:41:53.334103 15100 net.cpp:84] Creating Layer data
I1209 21:41:53.334108 15100 net.cpp:380] data -> data
I1209 21:41:53.334120 15100 net.cpp:122] Setting up data
I1209 21:41:53.334126 15100 net.cpp:129] Top shape: 1 3 32 32 (3072)
I1209 21:41:53.334130 15100 net.cpp:137] Memory required for data: 12288
I1209 21:41:53.334132 15100 layer_factory.hpp:77] Creating layer conv1
I1209 21:41:53.334153 15100 net.cpp:84] Creating Layer conv1
I1209 21:41:53.334157 15100 net.cpp:406] conv1 <- data
I1209 21:41:53.334162 15100 net.cpp:380] conv1 -> conv1
I1209 21:41:54.019964 15100 net.cpp:122] Setting up conv1
I1209 21:41:54.020011 15100 net.cpp:129] Top shape: 1 32 32 32 (32768)
I1209 21:41:54.020015 15100 net.cpp:137] Memory required for data: 143360
I1209 21:41:54.020048 15100 layer_factory.hpp:77] Creating layer pool1
I1209 21:41:54.020062 15100 net.cpp:84] Creating Layer pool1
I1209 21:41:54.020066 15100 net.cpp:406] pool1 <- conv1
I1209 21:41:54.020071 15100 net.cpp:380] pool1 -> pool1
I1209 21:41:54.020082 15100 net.cpp:122] Setting up pool1
I1209 21:41:54.020087 15100 net.cpp:129] Top shape: 1 32 16 16 (8192)
I1209 21:41:54.020090 15100 net.cpp:137] Memory required for data: 176128
I1209 21:41:54.020092 15100 layer_factory.hpp:77] Creating layer relu1
I1209 21:41:54.020097 15100 net.cpp:84] Creating Layer relu1
I1209 21:41:54.020100 15100 net.cpp:406] relu1 <- pool1
I1209 21:41:54.020128 15100 net.cpp:367] relu1 -> pool1 (in-place)
I1209 21:41:54.020298 15100 net.cpp:122] Setting up relu1
I1209 21:41:54.020305 15100 net.cpp:129] Top shape: 1 32 16 16 (8192)
I1209 21:41:54.020326 15100 net.cpp:137] Memory required for data: 208896
I1209 21:41:54.020329 15100 layer_factory.hpp:77] Creating layer norm1
I1209 21:41:54.020335 15100 net.cpp:84] Creating Layer norm1
I1209 21:41:54.020339 15100 net.cpp:406] norm1 <- pool1
I1209 21:41:54.020342 15100 net.cpp:380] norm1 -> norm1
I1209 21:41:54.020520 15100 net.cpp:122] Setting up norm1
I1209 21:41:54.020529 15100 net.cpp:129] Top shape: 1 32 16 16 (8192)
I1209 21:41:54.020550 15100 net.cpp:137] Memory required for data: 241664
I1209 21:41:54.020552 15100 layer_factory.hpp:77] Creating layer conv2
I1209 21:41:54.020560 15100 net.cpp:84] Creating Layer conv2
I1209 21:41:54.020562 15100 net.cpp:406] conv2 <- norm1
I1209 21:41:54.020567 15100 net.cpp:380] conv2 -> conv2
I1209 21:41:54.021416 15100 net.cpp:122] Setting up conv2
I1209 21:41:54.021427 15100 net.cpp:129] Top shape: 1 32 16 16 (8192)
I1209 21:41:54.021450 15100 net.cpp:137] Memory required for data: 274432
I1209 21:41:54.021456 15100 layer_factory.hpp:77] Creating layer relu2
I1209 21:41:54.021461 15100 net.cpp:84] Creating Layer relu2
I1209 21:41:54.021464 15100 net.cpp:406] relu2 <- conv2
I1209 21:41:54.021467 15100 net.cpp:367] relu2 -> conv2 (in-place)
I1209 21:41:54.021808 15100 net.cpp:122] Setting up relu2
I1209 21:41:54.021818 15100 net.cpp:129] Top shape: 1 32 16 16 (8192)
I1209 21:41:54.021841 15100 net.cpp:137] Memory required for data: 307200
I1209 21:41:54.021843 15100 layer_factory.hpp:77] Creating layer pool2
I1209 21:41:54.021848 15100 net.cpp:84] Creating Layer pool2
I1209 21:41:54.021852 15100 net.cpp:406] pool2 <- conv2
I1209 21:41:54.021855 15100 net.cpp:380] pool2 -> pool2
I1209 21:41:54.022014 15100 net.cpp:122] Setting up pool2
I1209 21:41:54.022022 15100 net.cpp:129] Top shape: 1 32 8 8 (2048)
I1209 21:41:54.022042 15100 net.cpp:137] Memory required for data: 315392
I1209 21:41:54.022045 15100 layer_factory.hpp:77] Creating layer norm2
I1209 21:41:54.022052 15100 net.cpp:84] Creating Layer norm2
I1209 21:41:54.022054 15100 net.cpp:406] norm2 <- pool2
I1209 21:41:54.022058 15100 net.cpp:380] norm2 -> norm2
I1209 21:41:54.022233 15100 net.cpp:122] Setting up norm2
I1209 21:41:54.022241 15100 net.cpp:129] Top shape: 1 32 8 8 (2048)
I1209 21:41:54.022269 15100 net.cpp:137] Memory required for data: 323584
I1209 21:41:54.022291 15100 layer_factory.hpp:77] Creating layer conv3
I1209 21:41:54.022297 15100 net.cpp:84] Creating Layer conv3
I1209 21:41:54.022300 15100 net.cpp:406] conv3 <- norm2
I1209 21:41:54.022305 15100 net.cpp:380] conv3 -> conv3
I1209 21:41:54.022996 15100 net.cpp:122] Setting up conv3
I1209 21:41:54.023007 15100 net.cpp:129] Top shape: 1 64 8 8 (4096)
I1209 21:41:54.023028 15100 net.cpp:137] Memory required for data: 339968
I1209 21:41:54.023036 15100 layer_factory.hpp:77] Creating layer relu3
I1209 21:41:54.023041 15100 net.cpp:84] Creating Layer relu3
I1209 21:41:54.023043 15100 net.cpp:406] relu3 <- conv3
I1209 21:41:54.023047 15100 net.cpp:367] relu3 -> conv3 (in-place)
I1209 21:41:54.023381 15100 net.cpp:122] Setting up relu3
I1209 21:41:54.023391 15100 net.cpp:129] Top shape: 1 64 8 8 (4096)
I1209 21:41:54.023412 15100 net.cpp:137] Memory required for data: 356352
I1209 21:41:54.023414 15100 layer_factory.hpp:77] Creating layer pool3
I1209 21:41:54.023419 15100 net.cpp:84] Creating Layer pool3
I1209 21:41:54.023422 15100 net.cpp:406] pool3 <- conv3
I1209 21:41:54.023427 15100 net.cpp:380] pool3 -> pool3
I1209 21:41:54.023587 15100 net.cpp:122] Setting up pool3
I1209 21:41:54.023596 15100 net.cpp:129] Top shape: 1 64 4 4 (1024)
I1209 21:41:54.023617 15100 net.cpp:137] Memory required for data: 360448
I1209 21:41:54.023618 15100 layer_factory.hpp:77] Creating layer ip1
I1209 21:41:54.023623 15100 net.cpp:84] Creating Layer ip1
I1209 21:41:54.023627 15100 net.cpp:406] ip1 <- pool3
I1209 21:41:54.023630 15100 net.cpp:380] ip1 -> ip1
I1209 21:41:54.023649 15100 net.cpp:122] Setting up ip1
I1209 21:41:54.023654 15100 net.cpp:129] Top shape: 1 10 (10)
I1209 21:41:54.023658 15100 net.cpp:137] Memory required for data: 360488
I1209 21:41:54.023661 15100 layer_factory.hpp:77] Creating layer prob
I1209 21:41:54.023666 15100 net.cpp:84] Creating Layer prob
I1209 21:41:54.023669 15100 net.cpp:406] prob <- ip1
I1209 21:41:54.023672 15100 net.cpp:380] prob -> prob
I1209 21:41:54.023866 15100 net.cpp:122] Setting up prob
I1209 21:41:54.023874 15100 net.cpp:129] Top shape: 1 10 (10)
I1209 21:41:54.023895 15100 net.cpp:137] Memory required for data: 360528
I1209 21:41:54.023897 15100 net.cpp:200] prob does not need backward computation.
I1209 21:41:54.023900 15100 net.cpp:200] ip1 does not need backward computation.
I1209 21:41:54.023903 15100 net.cpp:200] pool3 does not need backward computation.
I1209 21:41:54.023905 15100 net.cpp:200] relu3 does not need backward computation.
…
